pytorch/GAN/Simple_GAN/gan_disc.pt (torch, 404368 bytes, 3 tensors)

disc.0.weight f4 [128, 784]
-0.022529744 -0.020826306 0.03146219 0.0059423833 -0.02844465 0.03519788 0.0115032755 0.013276731
-0.008690319 -0.014997743 -0.025298426 -0.029054184 -0.031101897 -0.021622213 -0.020029431 -0.010919324
-0.0034929048 -0.006429711 -0.02537825 -0.033901826 0.029331855 -0.001429643 -0.011814778 0.03220763
0.02700699 -0.012241862 -0.03279644 -0.00081491045 -0.017925331 -0.012809614 -0.013310672 -0.033065934
0.023510909 0.010067123 0.030358618 -0.0020512685 -0.0008978248 0.009965855 0.02461388 -0.03307849
-0.0012235685 0.024600511 0.0060120057 0.002210945 -0.035709076 0.0066516954 0.03564359 0.009193025
-0.025533719 0.014554472 -0.032068055 -0.009384807 0.024853345 -0.028725792 0.013873991 0.03562524
-0.018823888 0.03331945 0.023693653 0.018992847 -0.0141083775 0.016926387 -0.028905198 0.012531537
0.01969315 0.014610427 0.0068614655 0.03004161 0.014402007 -0.01246512 0.014026744 -0.025096806
0.008669658 0.029829444 0.010576385 -0.008938802 -0.015989637 -0.025763521 -0.0009705297 -0.0017811827
-0.016115969 -0.026500883 -0.02689343 0.016758246 -0.023965636 0.022450019 0.01244921 0.005748715
0.027187191 -0.019305222 0.011663322 -0.008276693 0.03256461 0.028546786 0.008951622 -0.03173837
0.007489686 0.026840607 -0.03325953 0.028755512 -0.012351845 0.027055856 -0.0026189217 0.01360904
0.018363167 0.004880986 0.03428576 0.02558827 -0.027930772 0.010473627 -0.006779548 -0.011819891
0.00050899386 0.00010524903 0.021420352 0.03100811 0.026348336 0.0079338895 -0.027757872 0.026321758
-0.0045647966 0.034989517 -0.0071836924 0.011958821 0.0006820347 0.03161278 0.022281457 0.00077543093
-0.014058263 -0.028603956 -0.027907535 -0.012708954 -0.0018549222 0.011267735 -0.018073985 0.026748909
-0.029745286 0.0006679084 -0.015787035 -0.013019162 0.032881573 -0.015025225 -0.015543155 0.014826004
0.024714297 0.028804805 -0.02330812 0.03165391 -0.007388652 0.015005223 0.026876306 -0.005147466
0.011608491 0.009149109 0.028795073 -0.020986827 0.03243897 -0.013417449 -0.020475585 -0.020272512
-0.017763257 0.014138465 0.0045224046 -0.014859469 0.0002623371 0.033468064 -0.026964027 -0.012061145
-0.00523064 -0.011224407 0.029368313 -0.028425695 -0.030419176 0.0072101913 -0.012328085 0.009225297
0.004920832 0.021227127 0.029313557 0.0053240703 0.03472283 0.0012197112 -0.03446509 0.020860502
0.031919103 -0.018543087 -0.013199134 -0.00661225 -0.032063864 0.007518441 -0.0073415046 -0.018279813
0.018349806 0.013209662 -0.021646714 0.024291385 0.030014027 0.015554165 -0.03332476 0.023699667
-0.024925979 -0.00966718 0.03037876 -0.020709157 0.013359275 0.0025966722 0.029269611 -0.030894723
-0.017778823 0.010224355 -0.0054485076 -0.013143906 0.02660686 -0.019457635 -0.014674792 -0.033634942
0.015242808 0.025925288 -0.021740455 0.025125735 -0.008698072 0.010276859 0.009988232 0.003662433
0.021636505 -0.003262848 -0.011968132 -0.018000871 0.027159687 0.034585156 -0.013451892 0.012757511
0.014237519 -0.032590915 0.034634672 0.020767089 0.00052237086 -0.02427621 -0.0026963397 0.014859022
-0.009502003 0.01707732 -0.0015873356 -0.0073955446 0.035318125 -0.025616327 -0.034344275 0.005922978
0.033874836 -0.023198338 -0.010530029 0.03204874 -0.026026966 0.028176509 0.02292215 -0.035044897
00000000: 4c90 b8bc ee9b aabc 7fde 003d 53b8 c23b
00000010: c104 e9bc a72b 103d 3c78 3c3c a586 593c
00000020: d761 0ebc 18b9 75bc a53e cfbc 0a03 eebc
00000030: 68c9 febc 1121 b1bc c314 a4bc f7e6 32bc
00000040: 38e9 64bb 53b0 d2bb 0ce6 cfbc a4dc 0abd
00000050: 5c49 f03c dc62 bbba c592 41bc 26ec 033d
00000060: c33d dd3c 1792 48bc 8f55 06bd b79f 55ba
00000070: 25d8 92bc 6adf 51bc 0115 5abc 2570 07bd
00000080: f399 c03c 93f0 243c a3b2 f83c 936e 06bb
00000090: 015c 6bba d347 233c 0ca3 c93c 507d 07bd
000000a0: 2560 a0ba 0387 c93c 5c00 c53b 80e5 103b
000000b0: ae43 12bd 77f6 d93b 03ff 113d 579e 163c
000000c0: 172c d1bc e175 6e3c cb59 03bd bcc2 19bc
000000d0: 3e99 cb3c 5a52 ebbc bc4f 633c c6eb 113d
000000e0: 8e34 9abc fa79 083d 3119 c23c e396 9b3c
000000f0: d326 67bc 35a9 8a3c 98ca ecbc 1351 4d3c
00000100: 8753 a13c 9360 6f3c 25d6 e03b d319 f63c
00000110: 65f6 6b3c 813a 4cbc 6ed0 653c d197 cdbc
00000120: 2e0b 0e3c e15c f43c 9348 2d3c 0e74 12bc
00000130: b3fc 82bc 050e d3bc 256b 7eba 9376 e9ba
00000140: a305 84bc 6118 d9bc 9c4f dcbc 9748 893c
00000150: 9553 c4bc 1ae9 b73c c5f7 4b3c b75f bc3b
00000160: acb7 de3c fc25 9ebc 8517 3f3c f79a 07bc
00000170: 7862 053d f3da e93c d3a9 123c 1800 02bd
00000180: 0a6c f53b d5e0 db3c 253b 08bd ae90 eb3c
00000190: 655f 4abc 3ea4 dd3c 37a2 2bbb 73f8 5e3c
000001a0: 5a6e 963c aef0 9f3b 3a6f 0c3d 7e9e d13c
000001b0: 13cf e4bc 9399 2b3c f826 debb 37a8 41bc
000001c0: 006e 053a 25b9 dc38 bc79 af3c b804 fe3c
000001d0: 77d8 d73c 25fd 013c 7a64 e3bc baa0 d73c
000001e0: 4a94 95bb 2b51 0f3d 2e65 ebbb eeee 433c
000001f0: 93ca 323a 677c 013d 9a87 b63c 4a46 4b3a
00000200: a154 66bc d852 eabc 589e e4bc 3739 50bc
00000210: dc20 f3ba 4e9c 383c e50f 94bc 8720 db3c
00000220: 63ac f3bc 9316 2f3a d053 81bc 534e 55bc
00000230: d4ae 063d 5c2c 76bc b8a8 7ebc c5e8 723c
00000240: a375 ca3c 0ef8 eb3c acf0 bebc 88a7 013d
00000250: 811c f2bb 78d8 753c b32b dc3c 13ac a8bb
00000260: 8a31 3e3c 25e6 153c a5e3 eb3c 91ec abbc
00000270: bade 043d dcd4 5bbc 6abc a7bc 8a12 a6bc
00000280: 4084 91bc 05a5 673c ae30 943b 2175 73bc
00000290: 4a8a 8939 cf15 093d aae3 dcbc 1c9c 45bc
000002a0: ca65 abbb 93e6 37bc d195 f03c 01dd e8bc
000002b0: a331 f9bc 7843 ec3b bcfb 49bc b325 173c
000002c0: ee3e a13b 83e4 ad3c fc22 f03c 8a75 ae3b
000002d0: 8739 0e3d b7de 9f3a 442b 0dbd a5e3 aa3c
000002e0: 9bbd 023d ace7 97bc 2e41 58bc 93ab d8bb
000002f0: 6655 03bd 415d f63b 0191 f0bb 8cbf 95bc
00000300: 5552 963c 576d 583c 7354 b1bc bafe c63c
00000310: fadf f53c e5d6 7e3c 8b7f 08bd ce25 c23c
00000320: 9131 ccbc 1763 1ebc e1dc f83c 40a6 a9bc
00000330: dce0 5a3c ee2c 2a3b d3c6 ef3c ee16 fdbc
00000340: e5a4 91bc 0e84 273c 6589 b2bb 8a59 57bc
00000350: a1f6 d93c 9e65 9fbc 8a6e 70bc cbc4 09bd
00000360: f8bc 793c 4561 d43c 0a19 b2bc 7cd4 cd3c
00000370: 5c82 0ebc 4560 283c aea5 233c 6e05 703b
00000380: 0a3f b13c 81d5 55bb fc15 44bc 9076 93bc
00000390: fe7d de3c 2aa9 0d3d 5365 5cbc e104 513c
000003a0: 7c44 693c 0d7e 05bd 16dd 0d3d be1f aa3c
000003b0: b7ef 083a e7de c6bc 13b5 30bb 4173 733c
000003c0: 4aae 1bbc bce5 8b3c 250e d0ba 5356 f2bb
000003d0: bda9 103d 55d9 d1bc 95ac 0cbd 8a15 c23b
000003e0: 57c0 0a3d 710a bebc 2586 2cbc 8a45 033d
000003f0: 8136 d5bc 6cd2 e63c 3cc7 bb3c 3d8b 0fbd

disc.0.bias f4 [128]
0.01927946 0.021271672 -0.032512594 0.026973035 0.034322996 0.034148306 0.022623016 -0.027822223
-0.030090198 0.014360356 0.014818205 0.029331017 0.00693489 0.02834769 -0.00010444437 0.030373678
0.03040615 -0.032455415 0.030012371 -0.023131482 -0.028556561 0.020874383 0.003369059 -0.003186324
-0.009914505 0.027854124 0.017159004 0.012200216 -0.020971218 0.021240313 -0.013356124 0.023528505
-0.021297136 0.033871084 0.014767583 0.010270532 -0.030394696 0.008024944 0.016180819 0.03526561
-0.011997747 0.0018370578 0.012909221 0.009906416 0.014277731 -0.018633 -0.008684048 0.022313409
0.016803797 0.002998284 0.029552117 -0.015856033 0.0128991995 -0.020299235 0.010729173 0.022982437
0.031916868 -0.028882654 0.03487094 -0.017078929 0.0029437372 0.031731468 -0.005120388 -0.030717978
-0.022932352 -0.0092427395 0.018358875 -0.025986817 -0.009230627 0.034922626 0.024915624 -0.004851401
0.023321796 0.02021871 -0.01870834 -0.0308481 -0.017908901 0.01801702 -0.016848464 -0.0045689987
0.006293352 0.013548801 -0.035101604 0.010420753 -0.016983518 0.011372945 0.007425913 -0.0071435957
0.0021268683 0.012638016 0.018242909 -0.030943455 0.010168284 0.03506816 0.011669828 -0.035673738
0.023742182 0.030323382 0.015446855 0.013773778 0.015153149 0.015801452 -0.031651773 -0.018812262
-0.01518362 0.03408508 -0.003545093 -0.034033693 0.024506064 -0.025397642 -0.022459142 0.018129129
-0.026114436 -0.0059310454 -0.027745117 -0.033519946 -0.0066668396 -0.027011354 0.034923334 -0.017108139
-0.0062361066 0.0028943804 0.0042158794 0.035317622 0.01642905 -0.003072279 -0.0063775484 -0.0091896355
00000000: f5ef 9d3c ee41 ae3c ed2b 05bd 8ef6 dc3c
00000010: 4596 0c3d 18df 0b3d e753 b93c 6eeb e3bc
00000020: b87f f6bc b347 6b3c 0ec8 723c 9a47 f03c
00000030: 133e e33b 6a39 e83c 2509 dbb8 38d2 f83c
00000040: 5116 f93c f8ef 04bd 81dc f53c 3c7e bdbc
00000050: 73ef e9bc c100 ab3c 6ecb 5c3b a5d1 50bb
00000060: 7370 22bc 552e e43c 0a91 8c3c 6ae3 473c
00000070: d5cb abbc 2a00 ae3c a5d3 5abc dabe c03c
00000080: 5577 aebc 68bc 0a3d bcf3 713c bc45 283c
00000090: 4cfe f8bc 0e7b 033c a38d 843c ac72 103d
000000a0: 3392 44bc 6ec9 f03a 3381 533c 854e 223c
000000b0: 25ed 693c 3ca4 98bc 8a47 0ebc 9cca b63c
000000c0: 1ea8 893c dc7e 443b 4817 f23c 83e4 81bc
000000d0: 2a57 533c 954a a6bc 6ac9 2f3c aa45 bc3c
000000e0: 43bb 023d 519b ecbc d5d4 0e3d 1ce9 8bbc
000000f0: b7eb 403b dbf8 013d eec8 a7bb 45a4 fbbc
00000100: a1dc bbbc dc6e 17bc 5a65 963c 4ee2 d4bc
00000110: 0e3c 17bc 070b 0f3d da1b cc3c 80f8 9ebb
00000120: 5a0d bf3c b5a1 a53c 3c42 99bc 28b5 fcbc
00000130: b0b5 92bc 6e98 933c ca05 8abc 8ab7 95bb
00000140: 7738 ce3b cafb 5d3c b3c6 0fbd cebb 2a3c
00000150: 0521 8bbc 9755 3a3c 1355 f33b d314 eabb
00000160: ee62 0b3b ae0f 4f3c 2772 953c 217d fdbc
00000170: e098 263c a2a3 0f3d ce32 3f3c a01e 12bd
00000180: f77e c23c be68 f83c ce14 7d3c 6aab 613c
00000190: ea44 783c 0c72 813c 4aa5 01bd 2c1c 9abc
000001a0: b8c4 78bc cc9c 0b3d ca54 68bb ea66 0bbd
000001b0: f1c0 c83c b70e d0bc 3cfc b7bc 8a83 943c
000001c0: f1ed d5bc 3759 c2bb ba49 e3bc 364c 09bd
000001d0: 8175 dabb ea46 ddbc c50b 0f3d 5e26 8cbc
000001e0: 4158 ccbb a5af 3d3b 5c25 8a3b 36a9 103d
000001f0: 3796 863c 4a58 49bb c1fa d0bb 2090 16bc

disc.2.weight f4 [1, 128]
-0.08812889 0.0389528 -0.07314885 -0.027673535 0.0038867297 -0.05846027 0.015412702 -0.026769044
0.013194555 0.02890062 -0.052407783 -0.0021177842 -0.08418914 -0.042618733 -0.08540604 -0.030898424
0.05942318 -0.017467255 -0.078493856 0.04457063 0.035714194 0.056710005 0.015027417 -0.017212868
-0.07231461 -0.042578295 -0.058459576 0.02078672 0.028377483 0.08490546 0.07239173 -0.041514013
-0.022390291 0.04848779 -0.0790546 0.05060945 0.065814175 0.07021178 0.037495594 -0.046432592
-0.04492752 0.051719703 -0.011354139 0.013642545 -0.018560639 0.08830587 0.05371777 0.069977686
-0.036249187 0.011371842 -0.014224309 0.07291802 0.033141952 -0.03968952 -0.042579547 -0.015069763
-0.012931517 -0.01818902 -0.008064346 -0.005430105 0.018849883 -0.009786024 0.0061624805 0.02448637
0.037850756 -0.05630901 -0.07494405 -0.0859841 0.06409325 0.012086958 0.004876496 -0.0361831
-0.028306128 -0.049631327 -0.040061254 -0.08759502 -0.019896474 -0.0632161 -0.012427209 -0.028201973
0.05357267 -0.0044212677 0.05694802 0.05912362 0.0841711 -0.08416556 -0.043180764 -0.0642317
0.078946754 -0.06551878 -0.08680029 -0.052852243 0.0867945 0.08008601 0.063553885 0.08789773
0.04349994 0.061232954 -0.032430682 0.030585757 -0.052057143 -0.02294016 -0.062471606 0.010146316
-0.0396289 -0.007364182 0.016629249 0.036886185 0.003874212 -0.039176106 -0.06614677 0.073052555
-0.029945504 0.039109178 0.01130409 0.021477897 0.005772137 -0.07810822 0.050717283 0.011121878
-0.019468525 -0.05795492 0.052761372 -0.0679413 -0.07418284 -0.0419019 -0.019483445 0.029260417
00000000: eb7c b4bd f98c 1f3d 10cf 95bd 9cb3 e2bc
00000010: 81b8 7e3b 0974 6fbd 8f85 7c3c c14a dbbc
00000020: fa2d 583c fec0 ec3c 8ba9 56bd 86ca 0abb
00000030: 5b6b acbd fb90 2ebd 5de9 aebd b11e fdbc
00000040: b865 733d 7d17 8fbc 63c1 a0bd b18f 363d
00000050: 0c49 123d c048 683d 8e35 763c 0002 8dbc
00000060: af19 94bd 9466 2ebd 4f73 6fbd e948 aa3c
00000070: e577 e83c eae2 ad3d 1e42 943d 990a 2abd
00000080: d86b b7bc 229b 463d 61e7 a1bd db4b 4f3d
00000090: 95c9 863d 32cb 8f3d fb94 193d 1a30 3ebd
000000a0: eb05 38bd 0ad8 533d b606 3abc fb84 5f3c
000000b0: 7b0c 98bc b5d9 b43d 2a07 5c3d 7650 8f3d
000000c0: 077a 14bd f650 3a3c 130d 69bc 0b56 953d
000000d0: dbbf 073d 7a91 22bd e467 2ebd 2be7 76bc
000000e0: b7de 53bc 2401 95bc 5220 04bc 06ef b1bb
000000f0: 126b 9a3c 8f55 20bc a2ee c93b a497 c83c
00000100: 6509 1b3d 47a4 66bd 447c 99bd 6f18 b0bd
00000110: 5243 833d 6008 463c 03cb 9f3b bb34 14bd
00000120: 41e2 e7bc 384a 4bbd 4517 24bd 0565 b3bd
00000130: eefd a2bc 7177 81bd 7e9b 4bbc d307 e7bc
00000140: 046f 5b3d 48e0 90bb 5442 693d 9c2b 723d
00000150: e661 ac3d fe5e acbd 50de 30bd e98b 83bd
00000160: d6ae a13d b62e 86bd 5ac4 b1bd 987b 58bd
00000170: 51c1 b13d 2204 a43d 8a28 823d ba03 b43d
00000180: fe2c 323d 68cf 7a3d 09d6 04bd fb8e fa3c
00000190: df39 55bd 01ed bbbc 3ae2 7fbd bc3c 263c
000001a0: ea51 22bd 3c4f f1bb 103a 883c f815 173d
000001b0: 7ee6 7d3b 2077 20bd f577 87bd 949c 953d
000001c0: 4650 f5bc f230 203d ca34 393c 6af2 af3c
000001d0: 3224 bd3b 34f7 9fbd edbc 4f3d 8a38 363c
000001e0: 757c 9fbc 2362 6dbd 4f1c 583d cf24 8bbd
000001f0: 2ced 97bd 54a1 2bbd bf9b 9fbc 8bb3 ef3c
