pytorch/GAN/Simple_GAN/gan_gen.pt (torch, 874448 bytes, 4 tensors)

gen.0.weight f4 [256, 64]
000000 12 89 e6 bc d1 2f 01 bd 2b 5d 9f 3d 2e 2d fe 3c
       -0.028141532 -0.031539742 0.07781442 0.031027403
000010 1c 8c 08 3c 17 19 5e bd cb 79 92 3b 90 61 48 3d
       0.008334186 -0.054223146 0.0044700853 0.048921168
000020 9d 58 f1 3d b5 32 03 3d 9b 93 ae 3d 93 7e c1 bc
       0.1178448 0.03203078 0.08524247 -0.023619926
000030 ac b1 38 3d 80 8f 97 ba 83 e0 e4 3d 82 fd a0 3c
       0.045091316 -0.0011563152 0.11175635 0.019652132
000040 41 bb b0 3d 4b 95 b0 3c 6e a5 25 3e f7 31 08 be
       0.08629466 0.021555563 0.16176388 -0.1330031
000050 38 ff e9 3c 42 4e 32 bc d6 6b ac bd b8 3a 52 bd
       0.02856408 -0.010882916 -0.084190056 -0.05132553
000060 aa 1e 3f bc 90 54 bb 3d e1 d1 b8 3c 22 9d 0b be
       -0.011665026 0.091469884 0.022561016 -0.1363416
000070 ca 1b 3e bd b8 13 3d bd df 67 d5 bc 29 79 10 3d
       -0.04641322 -0.046161383 -0.026050506 0.035271797
000080 72 48 86 3d 14 2c 70 bd d9 fc 58 3d 41 f7 1a bd
       0.065567866 -0.058635786 0.05297551 -0.037833456
000090 d7 fb 37 bd 44 25 00 bd 68 0d 03 be b3 3b 83 bd
       -0.044917908 -0.03128554 -0.12798083 -0.06407871
0000a0 1b 52 05 3d 48 6b a7 bd c4 73 05 3d 6e 35 a2 bd
       0.032549005 -0.08174759 0.032581106 -0.07920347
0000b0 93 2f c7 3c d1 bc a2 bd 07 36 84 3d 30 b6 0c bd
       0.024314677 -0.0794617 0.064556174 -0.034353435
0000c0 6d e6 cb 3d f7 a7 52 bd 07 f3 a5 bb e4 9d 09 bd
       0.099560596 -0.051429715 -0.0050643715 -0.03359784
0000d0 e5 4b 7e 3d 51 e9 05 bd eb 66 3b bc 3e 2d ee 3d
       0.062084097 -0.03269321 -0.011438112 0.11629723
0000e0 66 22 0e bd a2 22 7f 3d 3c f8 3b bd dc 7c d3 3c
       -0.034700774 0.062288888 -0.04589103 0.025816374
0000f0 b0 e9 b9 3c 1b 97 13 bc ec 30 d1 3d 48 74 c2 bd
       0.022694439 -0.009008194 0.10214409 -0.09494835
000100 53 26 8d 3d 56 b7 66 ba f4 40 e0 bd bb 78 f9 bc
       0.068920754 -0.0008801123 -0.10949889 -0.030453077
000110 d5 08 60 bd 97 b8 b0 bc 5d e8 74 3d 75 d0 d2 bc
       -0.054695923 -0.021572394 0.05979191 -0.025734166
000120 e8 51 d7 bc 3f 7c 97 3c 95 6d 1c be d6 82 d5 3d
       -0.026284173 0.018491862 -0.15276177 0.104253456
000130 24 36 fd bc 95 36 db bc 44 c0 92 3c 5a 3e cd bd
       -0.030909605 -0.026759425 0.017913945 -0.10021658
000140 50 4d ae 3c 12 56 78 bd 60 3a ff bc ef ad 2a 3c
       0.0212771 -0.060628958 -0.031155765 0.010417446
000150 ac 66 4d 3c ba 69 e2 bc f3 7a 40 3d 9e 42 96 3b
       0.012536686 -0.027638305 0.046992254 0.004585578
000160 61 5e c0 3b 09 3f cb bc 26 f7 9e ba 71 2c 91 bc
       0.005870626 -0.024810331 -0.0012128099 -0.017721387
000170 db 30 08 3d 29 42 cc bd 43 6b 3a b9 72 12 46 bb
       0.033249717 -0.099735565 -0.000177783 -0.0030223397
000180 1d 29 90 bd 72 71 b0 3d 02 11 94 3d 5e fa 13 bd
       -0.07039092 0.08615388 0.072298065 -0.03612744
000190 d2 33 d1 bc b2 6a 6e 3d f3 ab 07 be c8 23 3d 3c
       -0.025537405 0.05820722 -0.13249187 0.011544175
0001a0 2f bf 45 bb c9 9b 5b bd 14 1f 41 3b ae c9 d7 3c
       -0.0030173769 -0.053615365 0.0029467987 0.026341286
0001b0 3f 1a 55 3c 40 6e 93 bd 0e fd 96 bd 7f 23 ef 3d
       0.013006746 -0.07198763 -0.07372485 0.11676692
0001c0 89 c2 d8 bd 12 33 1f 3d 1e b8 98 bd 57 f9 a6 3c
       -0.1058398 0.038867064 -0.074569926 0.020382566
0001d0 79 79 f6 3d 0b ed c0 bd c5 c4 65 bd 35 c7 02 be
       0.12034888 -0.09420212 -0.056095857 -0.12771304
0001e0 49 cc ab bd dc 24 4c 3c 0c cf 54 bc ac d6 a6 bc
       -0.08388574 0.01245996 -0.012988817 -0.020366035
0001f0 dc c4 9a 3d 30 c2 fa bc 61 c8 9c 3d c5 a6 fd bc
       0.07557079 -0.030610174 0.07655407 -0.030963311
000200 be 78 28 bd 91 75 87 bd d5 1a 4d 3d 04 fa 13 bd
       -0.041130774 -0.06614221 0.050074417 -0.036127105
000210 45 96 77 bc 0c a5 7b be 9f 86 a3 bd bf c0 8d 3d
       -0.015111511 -0.24574679 -0.07984661 0.06921529
000220 c6 ec 8b 3d de bd 52 bd 08 3b 42 3e f3 4a 44 3d
       0.0683227 -0.051450603 0.18967831 0.04792304
000230 e1 b3 e9 bd 57 bc f4 bd 45 df 96 3c 1a 09 8b 3d
       -0.11411262 -0.119499855 0.01841701 0.06788845
000240 06 f8 9a bd e9 f7 92 bb 4b 45 1b 3d 78 e9 0e 3b
       -0.07566838 -0.0044851196 0.03790788 0.0021806639
000250 04 6b 9e 3d 9a d7 11 3e f2 50 96 3d 20 0a ad 3d
       0.07735255 0.14242402 0.07339658 0.08449197
000260 22 d5 1e 3d a8 50 85 3c 46 1a e5 3d 58 03 65 3d
       0.038777478 0.016273811 0.11186652 0.055911392
000270 fd 81 2a 3e 9e ff 7c bd 29 a4 8e bd f1 e0 1f bd
       0.16651149 -0.061767213 -0.06964905 -0.03903288
000280 9b 13 88 3d f0 78 38 3e 69 56 c5 3c a0 3d 16 bd
       0.066443644 0.18014884 0.024089055 -0.036679864
000290 5e 02 35 bd 3e fb b9 3b 7b b9 c9 3d 21 71 10 3e
       -0.04419171 0.0056757024 0.09849831 0.14105655
0002a0 97 f0 17 3e f7 44 1e 3c 45 1e 03 bd 13 6b 4c 3e
       0.14837871 0.009659997 -0.03201129 0.1996272
0002b0 89 18 d2 3d 58 54 03 3e 4e 28 c6 3d d3 ef 23 3c
       0.10258586 0.12825143 0.09675656 0.010005909
0002c0 85 a8 ce 3d 65 e5 b5 bc 4f ab 12 3e c7 c6 72 bd
       0.10090736 -0.02220411 0.14323162 -0.0592716
0002d0 1d c5 e7 bd b5 0c 06 3d 7e 21 5e 3c 18 87 9c 3d
       -0.11316893 0.032726962 0.01355779 0.076429546
0002e0 79 f3 2b 3c 97 f4 04 3d a1 2e 71 bd 66 9d 69 3d
       0.01049506 0.03245982 -0.05888236 0.057034872
0002f0 7c 25 38 be 18 7e 09 3e 55 7a e9 bd 8d b8 df bd
       -0.17983049 0.13427007 -0.11400286 -0.10923872
000300 9b 16 90 3d 46 7a ab 3d 0d dc a6 3c 1a 23 5b 3d
       0.07035562 0.08372931 0.0203686 0.053500272
000310 4f fe 10 3d 6a d4 fb bb de 93 d7 3c f4 7b 9e bd
       0.035398778 -0.007685234 0.026315626 -0.07738486
000320 c9 cf 89 3b 46 61 14 bd b6 0c 31 be 6d 40 3d 3e
       0.004205678 -0.03622558 -0.17290005 0.18481608
000330 87 88 14 be dd db 50 3c 5c c1 8b bd 8b 8b 89 3d
       -0.14505206 0.012747732 -0.0682399 0.06716069
000340 db f9 03 3e 8a f1 f8 bd 31 fe 83 bd 53 cb ae bc
       0.12888281 -0.12155445 -0.064449675 -0.021337187
000350 9e 1c cb 3d c6 91 a4 bd d5 78 c7 bc ab 94 76 bd
       0.09917568 -0.080356166 -0.02434961 -0.060200375
000360 85 d8 40 bc 4c 6b 9f bb 6f 97 a5 bd 41 12 8e bd
       -0.011770372 -0.0048650857 -0.08085524 -0.069370754
000370 2d 88 d0 3d 14 2e 73 bd 8c 7b b7 bd 93 4f 05 be
       0.101822235 -0.059370115 -0.089591116 -0.13018636
000380 e5 57 54 be c3 0d 35 3d df ad 3d 3e bf ff c0 ba
       -0.20736654 0.044202577 0.18523358 -0.0014724656
000390 63 d0 53 bd 98 74 75 bd fa e1 88 be 24 25 09 bd
       -0.051712405 -0.059925646 -0.26734906 -0.033482686
0003a0 b2 9d 04 be ec 8b f2 bd f1 69 06 bd c4 13 4d be
       -0.12950781 -0.11843094 -0.032815877 -0.20027071
0003b0 70 34 b8 3d b2 36 72 bd b4 d1 de bd a1 f0 db 3d
       0.08994377 -0.059134193 -0.108798414 0.10739256
0003c0 5c 17 16 be 15 a2 5f bc 4a 3d 0d be 5c ad 88 3c
       -0.14657348 -0.013649483 -0.13792911 0.016684227
0003d0 1e f5 8c 3e 31 05 e2 bd 76 e6 34 3d 84 d9 bd bd
       0.2753076 -0.110361464 0.044165097 -0.092700034
0003e0 7c 7f d2 bd 96 9f bd 3d 6e 75 5e bc b8 c0 21 3c
       -0.10278222 0.09258954 -0.013577802 0.009872608
0003f0 01 03 74 3d 81 0c 12 be a9 dc 6d 3e ab 9d 24 be
       0.059573177 -0.14262582 0.23228706 -0.1607577

gen.0.bias f4 [256]
000000 0d 83 cc be 21 00 0f bf 46 8a 49 bd 26 5f cb be
       -0.39943734 -0.5585957 -0.049204133 -0.3972103
000010 e2 58 ed be 03 3b 11 bf 93 16 5f bf 82 cc c3 bd
       -0.46356875 -0.5673067 -0.8714382 -0.09560491
000020 72 49 fe bd 33 6b f3 bd ae 70 fd bd 13 7f dd bd
       -0.12416352 -0.11885681 -0.123750076 -0.10815253
000030 e0 77 d0 bd d8 23 3e 3f 90 bf c0 be 90 58 2e bf
       -0.10179114 0.74273443 -0.3764615 -0.68103886
000040 f3 49 eb be e8 0a f0 be ef 49 a7 3c bf 1f 5e bd
       -0.45954856 -0.4688332 0.020420996 -0.054229494
000050 ef cd 17 bf 31 66 d7 bd a4 4a c7 be 1d d2 07 be
       -0.59298605 -0.10517538 -0.38924134 -0.13263746
000060 80 4e fd be 23 6e e1 bc aa d5 c3 bf 19 55 9c be
       -0.49473953 -0.027518338 -1.529958 -0.30533674
000070 ca d7 28 be e8 d7 36 be ee e4 9a 3c 07 35 b0 be
       -0.16488567 -0.17855799 0.01890799 -0.34415457
000080 f1 c4 98 be 01 9f b4 be e8 7f d6 be 12 6d 12 be
       -0.29837754 -0.3527756 -0.4189446 -0.1429942
000090 11 ce b2 3e fa dd 70 bf 08 ae a3 be 15 f1 83 be
       0.3492284 -0.9408871 -0.31968713 -0.25769868
0000a0 b7 69 29 be 9d 57 62 be 56 10 9b be 5b fe 5c bf
       -0.16544233 -0.22103734 -0.302859 -0.86325616
0000b0 35 5a 16 bf a4 16 0c bf d7 c9 0b bf 6f 1f bb be
       -0.58731395 -0.54722047 -0.5460486 -0.3654742
0000c0 db 76 6b bf fc 81 94 be 1f 6b 11 be 46 3d e0 3d
       -0.91978234 -0.2900542 -0.1420102 0.10949187
0000d0 fc 9d 80 be f7 16 3c 3e 38 4e 3d be f4 74 22 bf
       -0.25120533 0.18368135 -0.1848687 -0.63459706
0000e0 b0 c3 3e bf f6 be e1 bd 81 65 6d bf 71 ae 84 bf
       -0.74517345 -0.11022751 -0.9273301 -1.0365735
0000f0 1f cc c2 bd 2a 12 6d be 9a e2 25 bf b1 eb 80 be
       -0.09511589 -0.2315146 -0.6479889 -0.25179818
000100 22 6b 37 bf 8d 37 b0 be 4f ca 82 be 4f 72 2d bf
       -0.71647847 -0.34417382 -0.25544974 -0.67752546
000110 2d bd 84 bd 8b f0 90 be 6f 62 91 be 17 4e 96 bd
       -0.06481395 -0.2830852 -0.2839541 -0.07339113
000120 5f b2 a0 be 73 11 a7 bd 73 84 dd be 74 cb bc be
       -0.31386086 -0.08157625 -0.43265113 -0.36873972
000130 07 79 6f bf 25 08 56 bf 59 2c 7a be d4 8c 03 bf
       -0.9354405 -0.8360618 -0.2443098 -0.5138676
000140 12 d1 02 bf 7f 6d 41 be f6 2d 57 be af a4 f0 bd
       -0.51100266 -0.18889426 -0.21013626 -0.11750161
000150 65 75 2a be 37 46 a9 be 81 01 8e bd 01 31 83 be
       -0.16646345 -0.33061382 -0.069338806 -0.25623325
000160 d5 0a fc be f6 b5 33 bf 49 2e 5f be 8e ed 08 bf
       -0.49227014 -0.70199525 -0.21795 -0.5348748
000170 63 36 d1 be 92 57 36 be d2 ef bd be 6f 76 0a bf
       -0.40861806 -0.17806843 -0.3709703 -0.54086965
000180 f1 94 00 bf 61 33 0c bf c5 48 4b be 6c 3e 19 bf
       -0.50227267 -0.547659 -0.19851978 -0.59860873
000190 eb 23 ab be 76 99 65 be 37 56 c2 bd f6 8f e9 be
       -0.3342584 -0.22421822 -0.094891004 -0.45617646
0001a0 81 26 18 3f d1 09 09 be f2 15 8f be 6b ad a7 be
       0.5943375 -0.13382651 -0.2794643 -0.32749495
0001b0 32 28 99 be 59 01 8b bf 78 62 23 be c9 17 d0 be
       -0.2991348 -1.0859786 -0.15955532 -0.40643147
0001c0 0c 27 50 be b0 86 c4 3d 71 49 c2 be 3c 38 bb be
       -0.20327395 0.09596002 -0.37946656 -0.3656634
0001d0 0b ea 80 be eb 1d c3 be 65 0a 80 3d ed 09 6c be
       -0.2517856 -0.38108763 0.062519826 -0.23050661
0001e0 38 42 26 3d 97 f0 7f be 4c 2a 9c bd 8b c6 64 be
       0.040590495 -0.24994121 -0.07625255 -0.22341363
0001f0 31 da 03 bf 67 0e 27 be 38 22 c0 be 75 76 b3 be
       -0.5150481 -0.16314088 -0.37526107 -0.35051313
000200 6b 28 84 be d3 be 9f be 85 b3 d8 bd c6 1e 4f bf
       -0.25812086 -0.31200275 -0.10581116 -0.8090633
000210 28 dc 88 be 7f 5c e4 be 5c 64 9f be c5 93 57 be
       -0.26730466 -0.4460182 -0.31131256 -0.21052463
000220 51 38 f9 bd 4e 43 7a 3e 31 c4 fd be 4d c2 12 bf
       -0.121689446 0.24439737 -0.49563745 -0.5732773
000230 04 58 9b bd 7d 88 d7 be 17 dc a9 be 27 26 9c 3d
       -0.07585147 -0.4209632 -0.33175728 0.076244645
000240 e8 31 8d be f9 aa c2 bd a2 37 95 be f9 46 8f bc
       -0.27577138 -0.09505267 -0.29144007 -0.017489897
000250 fb be 0c bd 6f 6e a9 be 11 b6 2e bf ff 2d 1a bf
       -0.03436182 -0.33092067 -0.6824656 -0.60226434
000260 10 f4 04 be db 8f f3 bd 15 7d 93 be 74 b8 ce be
       -0.12983727 -0.11892673 -0.28806368 -0.40375102
000270 1e cb e9 be c8 51 54 be 01 fa 63 be 23 1e e1 3a
       -0.4566278 -0.20734322 -0.22263338 0.0017175119
000280 f9 cc 41 bf 01 07 b8 be 3c a8 81 be 89 84 bc be
       -0.7570339 -0.35942844 -0.25323665 -0.36819866
000290 8c 37 c3 be f3 b4 61 be 7c 8b 6e be e8 77 d0 be
       -0.38128316 -0.22041683 -0.23295397 -0.4071648
0002a0 02 c7 0d be 52 2c 3c bf f0 19 14 bf 80 7e 62 bd
       -0.13845447 -0.7350513 -0.5785208 -0.05529642
0002b0 2f 7d 07 bf 23 60 bc 3d 74 4c c0 be ba 74 45 be
       -0.5292539 0.09198024 -0.3755833 -0.19282809
0002c0 4d 9a f2 be d2 85 b7 be a7 ad 7a be c3 68 e0 be
       -0.47383347 -0.35844284 -0.24480306 -0.43829927
0002d0 98 ea 81 be a5 cb aa be db d2 d1 bd 73 91 94 be
       -0.25374293 -0.33358493 -0.102452956 -0.2901722
0002e0 9e 00 04 bf e0 b7 b1 3e 17 68 d2 be 2f 49 8c bf
       -0.5156344 0.34710598 -0.4109504 -1.0959834
0002f0 76 52 4d 3d 61 57 95 be 6b 5f 8f be 72 6e 72 be
       0.05012747 -0.29168227 -0.28002486 -0.23674944
000300 b9 85 76 bf cc 54 37 bf e2 fc cb be 93 17 a7 3e
       -0.96297795 -0.71613765 -0.39841372 0.32635173
000310 27 1d aa be 86 5c 8d be d6 3a 4f be 83 09 14 bf
       -0.33225366 -0.27609652 -0.20237288 -0.57827014
000320 8f 48 49 bf 5b 46 2b 3d 7a 89 1d bf 26 39 fb be
       -0.7862634 0.041815143 -0.615379 -0.49067038
000330 b8 88 5f be 2b f4 e0 be 91 4e 94 bd 36 14 85 3d
       -0.21829498 -0.43936285 -0.07241548 0.064979956
000340 fd 11 2d bf 8c 9e b7 bd d6 28 11 bf 21 d4 3e be
       -0.6760557 -0.08965787 -0.56702936 -0.18635608
000350 dc c4 01 be 90 1a 85 be 42 7a 6e bf 59 a1 29 bf
       -0.12672752 -0.25996828 -0.931553 -0.6626182
000360 f2 39 ed be 38 4c 2f be 95 a3 a6 be b7 03 36 be
       -0.4633327 -0.17118919 -0.32546678 -0.17774855
000370 85 b4 67 be c1 25 38 be e0 47 a4 be 83 7e 92 be
       -0.22627456 -0.17983152 -0.32086086 -0.28612146
000380 9d 20 48 bf 15 2e 2f be 95 79 02 bf 2f 63 89 bf
       -0.78174764 -0.17107423 -0.5096677 -1.0733393
000390 05 03 b8 be ef de 14 be 16 90 5e be db 0d 4a be
       -0.35939804 -0.14538167 -0.21734652 -0.19731848
0003a0 bc c6 8e be 15 75 ba be a4 c4 20 bf 45 6d b0 be
       -0.27885997 -0.36417452 -0.6280005 -0.34458366
0003b0 c2 14 01 bf 31 0e 9a be eb e1 76 be e9 eb 73 be
       -0.504223 -0.30088952 -0.24109618 -0.23820461
0003c0 9f 38 af be 43 d8 d7 be f8 02 98 be 92 99 0e be
       -0.34222886 -0.42157182 -0.29689765 -0.1392577
0003d0 1f 85 8d be 9c 9a 9e be ef ea 22 3e 06 68 2e bd
       -0.27640626 -0.30977333 0.15909933 -0.042579673
0003e0 ab 51 a0 3d 90 6a d2 be 41 c3 12 bb 63 78 8f be
       0.07828077 -0.41096926 -0.0022394212 -0.28021535
0003f0 c0 49 84 be 10 f8 1f bf 3e 49 78 3d 23 32 77 be
       -0.25837517 -0.6248789 0.060616724 -0.2414022

gen.2.weight f4 [784, 256]
000000 69 db ab be df ae 69 3e dc ae 93 be 7c 13 f5 3d
       -0.33565834 0.22820614 -0.28844345 0.11966607
000010 8e 77 73 3e 8f b3 9a 3e c6 4a a7 3e da 00 d9 be
       0.23776075 0.30215117 0.32674235 -0.42383462
000020 c7 e2 40 3d 09 bc 9e be 33 89 20 be 7a 97 f4 bd
       0.04709127 -0.31002834 -0.15677337 -0.11942954
000030 7b 5f 4a 3e 36 46 af be 81 4a 41 be 65 dd 68 bd
       0.19762985 -0.34233254 -0.18876077 -0.056851763
000040 dd 00 8e 3e b0 ab 0f 3d 45 37 ec 3b 52 04 e2 bd
       0.27735034 0.035075843 0.007208737 -0.1103598
000050 8e b4 27 3f 24 10 70 be 04 ae fe 3d 4f 7f 8f be
       0.6550988 -0.23443657 0.124355346 -0.28026816
000060 80 4a a1 3e ed 4b 71 be 09 53 4f 3c 04 2d 12 3e
       0.3150215 -0.2356412 0.0126540745 0.14274985
000070 1b 88 82 be 7d 08 b2 3d ce f9 6a be c8 fc a5 bd
       -0.25494465 0.08693025 -0.22946855 -0.08104855
000080 cf 27 fe 3d 69 8a 76 be aa e6 e3 bc 44 4e 04 be
       0.12409937 -0.24076237 -0.02781995 -0.12920481
000090 ba ac 9d 3a be 29 33 be 90 5e ab be c8 e6 51 3d
       0.0012029626 -0.17496392 -0.33470583 0.05124548
0000a0 95 29 3d 3f a4 70 da be 6a 27 a2 3e db 6b 1a 3e
       0.73891574 -0.42664063 0.31670696 0.15080206
0000b0 c3 7b ad bd 98 10 31 3e 75 df 38 be 06 ff 8a bd
       -0.08470871 0.17291486 -0.18053992 -0.06786923
0000c0 8e 5e 37 3d e8 af cb 3d 1c 5b 32 be ec 5f a0 be
       0.04476791 0.09945661 -0.17417568 -0.31323183
0000d0 ad ec c7 bd 0a 74 21 be 66 cd a1 3d f0 e7 9c be
       -0.09761939 -0.15766922 0.07900505 -0.30645704
0000e0 cc af 3d 3e 61 4c b0 bd fc 14 b0 3d e8 ef bb 3d
       0.18524092 -0.08608318 0.085977525 0.09176618
0000f0 12 3b 33 be 4e ed c2 be a0 04 82 bd 08 be 47 3e
       -0.17503002 -0.38071674 -0.063485384 0.19506085
000100 ec c2 49 be d8 a5 b2 3d f5 ce 76 3e f4 cc be 3e
       -0.19703263 0.087230384 0.24102385 0.37265742
000110 86 18 8a be 59 26 49 3e 0b a6 58 bd 1a 06 8f bd
       -0.26971835 0.19643535 -0.052892726 -0.06983586
000120 97 17 15 3e 47 8f 07 bf 40 d1 99 bc 90 5f 35 be
       0.1455978 -0.52953 -0.018776536 -0.17712235
000130 fe 3e ac 3e 61 a7 a0 be e7 6d e5 be b4 84 05 bf
       0.3364181 -0.313777 -0.4481041 -0.52155614
000140 0e d6 97 bd 52 92 d6 3d 00 db 6d be 6f 0f b6 be
       -0.074138746 0.10477127 -0.23228073 -0.3555865
000150 ef fb 7b 3d 35 ed 18 3e a7 40 1e bf f3 8c 0e 3c
       0.06151956 0.14934237 -0.618174 0.008700597
000160 ae fc 38 be 2c 0a a3 3e 03 68 d8 be 4d 91 74 3d
       -0.1806514 0.31843698 -0.42266855 0.059708882
000170 2f 33 1c be 59 d2 db bd 48 c7 01 3e 40 9d dd 3c
       -0.152539 -0.1073348 0.12673676 0.027052522
000180 8f 6a cc bd 15 ba 21 3e cb 71 b7 be ba a3 da 3d
       -0.09981262 0.15793641 -0.35829005 0.106757596
000190 47 f3 0a bc fe d7 17 bf fd 80 5b bd af 10 7e be
       -0.008480853 -0.5931395 -0.05358981 -0.24811052
0001a0 53 1c 3c be 7d 38 c8 be 2c d6 ff be 3f 93 b4 be
       -0.1837018 -0.39105597 -0.49968088 -0.3526859
0001b0 e7 db e4 bd 56 4b d7 3c 0f 3c 12 bf b3 2f 90 be
       -0.111747555 0.02628104 -0.5712289 -0.28161392
0001c0 9b cf ad bd 37 4d 15 be cd 6e aa be fd a5 a1 3c
       -0.08486863 -0.14580236 -0.3328766 0.01973247
0001d0 5c bc c9 be 8f d5 5b 3e 5f 5f c9 3d 61 bb 1d bd
       -0.3940152 0.21468185 0.09832644 -0.038508777
0001e0 d2 d2 6a 3e 29 0b 70 3e 69 7a cc bc 54 6e 2a bd
       0.22931984 0.23441757 -0.024960713 -0.041609123
0001f0 78 da ea 3e e3 a3 94 3b 02 81 be bd 27 55 37 bd
       0.45869803 0.0045361384 -0.0930195 -0.044758942
000200 0b cf 47 be eb 9e 23 be 4d d9 0a bf 07 5b 91 be
       -0.19512574 -0.15978591 -0.54237825 -0.2838976
000210 7d 2a 93 3d b3 e4 94 bd eb 1e 83 3e b3 aa 73 be
       0.07185838 -0.072701834 0.25609526 -0.23795585
000220 2a 1f eb 3d 3b a4 dd bd 17 da 24 be 95 68 86 3e
       0.114805534 -0.1082234 -0.1609882 0.26251665
000230 ba 7d 74 be 76 6a 56 be 6e 13 81 be 2d 8b f2 be
       -0.23876086 -0.20939049 -0.25210136 -0.47371808
000240 98 43 5b 3a e5 ae b7 3b b4 55 ea be 4a d3 11 bf
       0.0008364259 0.005605566 -0.4576851 -0.56963027
000250 11 47 31 3d 74 04 e2 bd ce e6 23 be 82 7a 9e 3d
       0.043280665 -0.110360056 -0.16006014 0.0773821
000260 f9 42 0d bf f7 f6 8d be 8d ec 16 3f 7d f7 59 be
       -0.5518032 -0.27727482 0.589547 -0.21285816
000270 ea 22 f7 bd 4d 71 8d bd de 5a 84 be 25 2f e5 3c
       -0.12067206 -0.06906376 -0.25850576 0.027976582
000280 d0 46 f4 3d 4e 9a 50 3e e9 b9 d0 bd c9 fa 49 be
       0.11927569 0.20371363 -0.101917095 -0.19724573
000290 69 b2 1e 3d c4 d1 73 be b2 6a c7 be 8b 52 d2 be
       0.038744364 -0.23810488 -0.3894859 -0.410786
0002a0 34 db 9e 3e 6f 13 d7 3c 0f e4 3b bd ea 59 13 bd
       0.31026614 0.026254384 -0.04587179 -0.03597442
0002b0 42 1e 3a 3e 06 af 42 be 29 3a f1 3e 87 66 3c 3f
       0.18175605 -0.19012079 0.47114685 0.73593944
0002c0 e0 c9 b0 bc e6 15 cf bd a2 5f 0d 3e 1a 06 57 be
       -0.021580637 -0.10111599 0.13806012 -0.20998421
0002d0 85 61 c9 bd a1 90 94 3e e2 3f ce bd af da 80 be
       -0.098330535 0.29016593 -0.100707784 -0.25166842
0002e0 d0 ac bb bd 56 1b 92 3a 8c 54 d5 3e 4f a8 9c 3e
       -0.09163821 0.0011147063 0.41666067 0.3059716
0002f0 3e dc e8 be f9 23 0a bd 3a 03 eb bd d7 fe fd bc
       -0.4548053 -0.033725712 -0.11475225 -0.031005306
000300 63 7f 17 bd 2b c3 30 3e f4 5d 86 be 16 60 88 be
       -0.03698672 0.1726195 -0.26243556 -0.26635808
000310 47 e2 4d bd c6 36 00 bf 87 b2 93 bd bb dd eb bd
       -0.050264623 -0.5008358 -0.07211786 -0.11516901
000320 c1 89 da bc 49 3e cd bd a0 6d 1b be 36 10 75 3d
       -0.026677014 -0.100216456 -0.15178537 0.059829913
000330 0f a9 8c be 83 75 04 be 19 ea 0c bd 59 c2 22 3b
       -0.2747273 -0.12935452 -0.03440294 0.0024835079
000340 a7 94 3d 3e 2a e0 73 3d 22 55 1e 3e fa 7c e8 be
       0.18513738 0.05953995 0.15462163 -0.4540785
000350 69 75 8a 3d 82 44 a3 bd a4 60 38 3d b7 e9 9b be
       0.067606755 -0.07972051 0.04501404 -0.30451748
000360 cf 33 63 3d 64 0e 23 be ba 44 a0 3c fa 22 03 bc
       0.05546933 -0.15923458 0.019564021 -0.0080039445
000370 33 75 89 3e a1 ab 42 3d 09 13 93 be 9d 70 98 be
       0.26847228 0.04752696 -0.2872546 -0.29773417
000380 08 32 c3 bd a4 53 6b 3d 85 ca 26 3e 93 41 5e 3e
       -0.09531027 0.057452813 0.16288193 0.21704702
000390 78 d3 ac be 72 88 87 bd 0d 54 fa 3b 97 53 1f be
       -0.33755088 -0.06617822 0.007639414 -0.1555923
0003a0 2f c2 05 bf 7d 08 08 bd 88 ea f1 bd 6f 2b 60 bd
       -0.52249426 -0.03321122 -0.118123114 -0.05472892
0003b0 30 c2 1d be d3 4f 35 be 85 e6 59 bd b8 93 85 be
       -0.15406108 -0.17706232 -0.053198356 -0.26089263
0003c0 45 1b ee bd ee a9 ec 3d 46 a8 04 be 84 9d 95 be
       -0.11626295 0.11555849 -0.12954816 -0.29221737
0003d0 cd 4b 12 be 7c 98 57 3e 48 be 61 3d b4 b5 bd bd
       -0.14286728 0.21054262 0.055113107 -0.09263173
0003e0 fc a1 72 be c0 e6 c4 3f 26 f3 45 bd 3e ef 2c 3f
       -0.23694605 1.5382919 -0.048327588 0.67552555
0003f0 4c c1 3b be ea 4f ae bd c1 49 92 be 7d 17 fc 3d
       -0.18335456 -0.08511336 -0.28571895 0.123091675

gen.2.bias f4 [784]
000000 62 98 9d be 6f 75 94 be 43 46 9c be a9 15 55 be
       -0.3078032 -0.28995845 -0.30522355 -0.20809044
000010 2e 87 77 be 7d 1c 83 be 3b 2e 69 be 0c 1b 8a be
       -0.2417266 -0.25607672 -0.22771542 -0.2697376
000020 07 96 95 be 2f 77 38 be 76 0c 87 be 16 0b 90 be
       -0.29216024 -0.18014215 -0.26376694 -0.28133458
000030 e3 46 5e be 20 1a 8e be 10 ae 89 be 5d 23 ac be
       -0.21706729 -0.27754307 -0.26890612 -0.3362073
000040 8d 6d 5d be d3 1a 39 be 61 64 41 be 58 fd 76 be
       -0.21623822 -0.18076639 -0.18885948 -0.2412008
000050 71 ad 57 be de 78 69 be bd be 67 be b3 9a 2c be
       -0.21062256 -0.22800013 -0.22631355 -0.16855888
000060 db 71 9a be 20 c9 93 be b7 4b 82 be fb fd 59 be
       -0.3016499 -0.28864384 -0.2544839 -0.21288292
000070 d9 9a 62 be 14 6f 8f be ca 36 6b be 5f 03 8b be
       -0.22129382 -0.28014433 -0.22970119 -0.2715101
000080 cb 0b 41 be 2c 59 2a be 78 4f b5 be 98 73 86 be
       -0.18852155 -0.16635579 -0.35412192 -0.26260066
000090 f8 42 ab be 39 70 b5 be 0c d3 69 be 26 9e 84 be
       -0.3344953 -0.35437182 -0.22834414 -0.25901908
0000a0 c1 95 96 be ff 81 8e be 0e 45 b4 be 2c 8b a0 be
       -0.29411128 -0.27833554 -0.35208935 -0.3135618
0000b0 1f 25 73 be 6c a5 67 be b0 18 69 be 7d 70 65 be
       -0.2374463 -0.22621697 -0.22763324 -0.22406192
0000c0 a6 9d 92 be 97 56 55 be 4e 3a 8b be ab 9a 50 be
       -0.286359 -0.20833813 -0.2719292 -0.20371501
0000d0 57 a6 a7 be 1d 79 90 be 45 80 f7 bd 81 d0 67 be
       -0.32744095 -0.28217402 -0.12085012 -0.22638132
0000e0 56 79 8a be 79 7e 6c be 9b 9e 82 be ab 89 70 be
       -0.27045697 -0.2309512 -0.2551163 -0.23490016
0000f0 02 55 a2 be 27 a6 7c be db de 4b be 4e 6f 50 be
       -0.3170548 -0.24672757 -0.19909231 -0.2035496
000100 4b f9 a8 be 58 34 82 be a5 20 8d be ec e1 4f be
       -0.33002695 -0.2543056 -0.27563968 -0.20301026
000110 3e c9 ad be 55 4b 94 be 60 92 a2 be f0 e3 76 be
       -0.33942598 -0.28963724 -0.317523 -0.24110389
000120 91 19 8c be a0 94 87 be cd 85 98 be 0c 7c 7a be
       -0.27363256 -0.2648058 -0.29789582 -0.24461383
000130 38 dc c6 be 33 f3 83 be 53 5d a6 be 8f d3 cc be
       -0.3883989 -0.25771484 -0.32493076 -0.40005156
000140 51 6b 92 be 6d 1d 99 be e9 bc ab be 3f ae 58 be
       -0.285975 -0.29905263 -0.33542565 -0.2116022
000150 71 2f 8b be 8d c7 bb be b2 3c a1 be 73 7f 35 be
       -0.27184632 -0.36675683 -0.3149162 -0.177244
000160 43 f5 ad be 79 30 b8 be 62 4b 72 be 48 90 88 be
       -0.33976182 -0.35974482 -0.23661569 -0.26672578
000170 63 ce 9a be ff df 9e be a1 c2 97 be b5 a6 9a be
       -0.30235586 -0.3103027 -0.29640678 -0.30205312
000180 69 f9 a4 be d8 f1 4b be bd b8 72 be 13 b1 9e be
       -0.32221535 -0.19916475 -0.23703285 -0.30994472
000190 96 7f 89 be 81 ba 1e be 84 58 bd be a2 99 8b be
       -0.26855153 -0.15500833 -0.36981595 -0.2726565
0001a0 da 5f 6c be 20 d1 94 be 92 8a 50 be 29 4e b2 be
       -0.2308344 -0.290658 -0.2036536 -0.34825256
0001b0 cb fd a4 be 81 55 f0 bd d2 82 6d be 92 09 16 be
       -0.3222488 -0.117350586 -0.23194435 -0.14652088
0001c0 2e 09 84 be 49 f8 96 be ef db 97 be 05 59 6e be
       -0.25788254 -0.29486302 -0.29659984 -0.23276146
0001d0 fa 08 85 be a8 11 6b be 91 a7 bd be 3b f5 41 be
       -0.2598341 -0.22955954 -0.37041906 -0.18941204
0001e0 f1 86 83 be 07 41 79 be b8 09 42 be 11 d5 6d be
       -0.2568889 -0.24341212 -0.1894902 -0.2322581
0001f0 e0 c5 42 be d5 66 ec bd 91 99 28 be 4f 1e 56 be
       -0.19020796 -0.11543051 -0.16464831 -0.2091
000200 e3 f9 4b be 24 57 5c be 08 ec 6e be e2 18 72 be
       -0.19919543 -0.21517617 -0.23332226 -0.23642305
000210 65 c2 76 be d1 c6 69 be 11 a2 5a be 8e b5 91 be
       -0.24097593 -0.22829749 -0.21350886 -0.28458828
000220 21 63 a8 be 36 41 5d be c5 f3 70 be 13 24 b0 be
       -0.3288813 -0.21606907 -0.2353049 -0.34402522
000230 32 a6 6d be de 97 b0 be 0a e1 64 be f2 51 80 be
       -0.2320793 -0.34490865 -0.2235147 -0.2506252
000240 4c ce be be 4a da 87 be b5 f1 91 be f5 da a2 be
       -0.37266767 -0.2653373 -0.2850472 -0.31807676
000250 c9 88 64 be 4d b6 d8 bd 19 8a dd bd 82 f5 06 be
       -0.22317804 -0.10581646 -0.10817356 -0.13179591
000260 1d 76 a9 bd 63 73 c7 bc 1e 77 89 bd 7a 24 ab bd
       -0.082744814 -0.024347013 -0.06712173 -0.08356567
000270 c1 b0 58 bd 33 e7 62 bd df 42 1e be fd bc fb bd
       -0.05290294 -0.05539627 -0.15455197 -0.12291906
000280 09 2d 4d be d6 05 4f be 83 7f b7 be 03 c0 92 be
       -0.20036711 -0.2021707 -0.3583947 -0.28662118
000290 76 c9 9e be 9a b9 b0 be 12 0e 32 be 78 e6 f4 bd
       -0.31013077 -0.34516603 -0.1738818 -0.11958021
0002a0 38 ce 78 be cb 54 89 be 56 96 65 be d9 68 31 be
       -0.24297416 -0.26822504 -0.2242063 -0.17325152
0002b0 7f 0f a2 be 65 d3 8b be 5d 57 88 be 41 fb 71 be
       -0.31652448 -0.2730972 -0.26629153 -0.23631002
0002c0 49 85 4d be 97 43 85 bd d6 dc 06 bd 80 a5 8b bc
       -0.20070376 -0.06507032 -0.03292545 -0.01704669
0002d0 f6 af 1c bc 61 07 0c bd 35 c3 0d 3c fc 20 c2 3b
       -0.009563437 -0.034186725 0.008652498 0.005924342
0002e0 e3 ad 45 bc 67 2b 75 bd d7 96 a7 bc 76 7d 24 bd
       -0.012065384 -0.059855845 -0.020457668 -0.04015871
0002f0 89 9c 73 be b5 65 af bd 97 43 5d be 08 c2 57 be
       -0.23790182 -0.08564321 -0.21607815 -0.21070111
000300 4d 77 a1 be 03 78 9b be b5 a5 67 be 3a 3f 9e be
       -0.31536332 -0.30365 -0.22621806 -0.30907613
000310 27 d4 b0 be 25 eb 50 be 21 61 99 be 61 ab ca be
       -0.3453686 -0.204022 -0.29956916 -0.39583877
000320 c3 af 2c be 75 bc 9f be a3 f0 78 be 93 b6 0d be
       -0.16863923 -0.3119847 -0.24310546 -0.13839178
000330 b5 c4 2a be 24 34 dd bc 6a fd d4 bd b8 cc f3 bc
       -0.166766 -0.027002402 -0.103998974 -0.029760703
000340 f2 9b 19 3d 59 a4 99 3c aa 17 79 bb b2 d1 43 3d
       0.037502237 0.018755125 -0.003800849 0.047807403
000350 b8 2a 73 3d 07 cd 00 3d b3 3d 02 bd da 70 f3 3c
       0.05936691 0.03144553 -0.031797122 0.029716898
000360 a7 80 89 bd d8 8c a9 bd dd 02 1b bd b6 6c 31 be
       -0.067139916 -0.08278817 -0.037844528 -0.17326626
000370 01 f2 81 be e7 08 a6 be 77 9d 80 be f4 63 c4 be
       -0.25379947 -0.32428667 -0.25120136 -0.38357508
000380 e6 45 98 be 01 cd 2a be ed a4 50 be eb d5 b5 be
       -0.29740828 -0.16679765 -0.20375414 -0.3551477
000390 72 76 81 be 7c 08 97 be 25 d8 9d be 78 e3 0a be
       -0.2528568 -0.2949866 -0.30828968 -0.13563335
0003a0 82 00 3f be eb 7c 85 bd e8 c9 a3 bc 0a b5 1b bc
       -0.18652537 -0.06517967 -0.019993737 -0.009503612
0003b0 78 82 c1 bd 43 6d ae bc 8e 3d c2 bd f4 2a c9 bd
       -0.09448713 -0.021292334 -0.09484397 -0.09822646
0003c0 ee 32 5f bd f3 a4 32 bd c0 f0 05 bd 69 dd aa bd
       -0.05449193 -0.04361434 -0.0327003 -0.08343012
0003d0 9b a0 4a bd fc f5 00 be 2f b3 71 be 90 d7 90 be
       -0.04946957 -0.12593836 -0.2360351 -0.2828946
0003e0 ea 8c 56 be 83 a2 8d be 4f eb 51 be 43 6c a8 be
       -0.20952192 -0.2766305 -0.2049992 -0.32895097
0003f0 d0 09 a4 be 0d 62 ac be d2 0f 9c be 38 94 c0 be
       -0.32038736 -0.33668557 -0.3048082 -0.37613082
